models/ncf_recommender.pth (torch, 343173 bytes, 9 tensors)

user_gmf_embedding.weight f4 [943, 16]
000000 27 63 d1 bf 8b 59 0b 40 8a 6a 10 3f 84 d1 61 bf
       -1.6358384 2.1773403 0.56412566 -0.8821032
000010 30 7f 25 bf da 22 35 3f db 3b f0 be ed 43 5e 3f
       -0.646472 0.70756304 -0.46920666 0.86822397
000020 67 9f ab 3e 61 5a bb bd d2 25 90 3e d5 cb 2e be
       0.33520052 -0.09148098 0.28153855 -0.17069943
000030 ca 64 24 3f 1f 63 8d 3f f2 f1 9d be 23 59 df 3e
       0.6421629 1.1045874 -0.30848652 0.43622693
000040 ea e0 b9 3e fc a0 3a 3c 0f bd a3 bf a3 a1 ff 3e
       0.36304408 0.011390921 -1.2792071 0.49928007
000050 4e 08 9f be 99 d4 92 bf 74 b3 0b be fe c9 80 3f
       -0.31061023 -1.147113 -0.13642675 1.0061643
000060 34 6c 9b be 66 ed 43 3f c8 86 7d 3d b2 af e2 3f
       -0.3035599 0.76534116 0.061896116 1.7709868
000070 7f 46 97 3f 5f 71 a3 be 03 f0 c9 3f 32 1e 92 be
       1.1818389 -0.31922433 1.5776371 -0.28538662
000080 b0 c4 3a bf 4c e5 1e 3f 60 4f b9 bd d4 bb d1 bf
       -0.7295637 0.6206863 -0.09048343 -1.6385446
000090 ea d9 0c bf c2 a5 8b bd 79 99 12 bf 4c ed b5 bf
       -0.5502001 -0.06818725 -0.5726543 -1.4213042
0000a0 78 0a f5 be be d8 7e 3e 77 a5 5b 3f dc 8a bc bf
       -0.4785955 0.24887368 0.85799354 -1.4729877
0000b0 3b 2b 80 3f 20 ca 57 be 98 3c 32 bd a1 4d 50 3f
       1.0013193 -0.21073198 -0.043514818 0.8136845
0000c0 35 55 9e bf 25 2e 5c 3f 58 97 09 c0 74 dd d8 bf
       -1.2369753 0.8600791 -2.1498623 -1.6942582
0000d0 38 23 2e 3f 9b 50 09 3e 08 6d 67 bc c7 e4 29 be
       0.6802249 0.13409655 -0.014125116 -0.16591178
0000e0 e7 bf 38 be d5 00 ba 3f c8 7c 84 ba f6 8c 4f 3f
       -0.18041955 1.4531504 -0.0010107988 0.81074464
0000f0 86 20 c5 bf 78 2c a5 bf 1c df fb 3d 25 fb 1a bd
       -1.540055 -1.2904196 0.12298414 -0.037837166
000100 02 a7 cd 3f 9e 2b 4b bf f1 20 4d bf 1c 9b 37 bf
       1.6066592 -0.7936343 -0.8012839 -0.71721053
000110 fc d6 b2 bf ed ca b2 bf bd 4c 83 3e 43 71 89 3f
       -1.3971858 -1.3968178 0.25644484 1.073769
000120 15 fc b1 3f 63 b8 f3 3f 08 14 14 40 43 43 46 3f
       1.3905054 1.9040645 2.3137226 0.77446383
000130 7b 5b 92 bf 2a b7 38 3f fb ca 99 3e 12 ed 1b bf
       -1.1434168 0.72154486 0.30037674 -0.60908616
000140 fd df b7 be 82 59 8e 3e 94 f6 ae 3f 6b 24 0d 3f
       -0.35913077 0.27802664 1.3669 0.55133694
000150 98 bf 86 3f 13 bd 48 3e 64 90 10 3e 02 b5 7a 3f
       1.052722 0.19603376 0.1411758 0.97932446
000160 e6 65 d9 3f bd bd 92 3f e9 e4 a1 bd f0 aa e8 3f
       1.6984222 1.1464154 -0.07904989 1.8177166
000170 e4 7c 8d bf 52 6d 02 be cd f1 17 bf 56 94 07 be
       -1.1053739 -0.12737015 -0.59353334 -0.1324018
000180 a4 a0 2d 3f e2 8b 49 3e 99 ca 02 40 b9 8f ab 3f
       0.67823243 0.19682267 2.0436156 1.3403236
000190 af 61 3c 40 35 4c 88 be 90 27 b7 bc 72 8c 18 bf
       2.9434621 -0.2662064 -0.022357732 -0.595893
0001a0 81 fd 8b be 5f a9 e5 3e 02 a4 4c 3e ce a6 99 be
       -0.27341846 0.44855782 0.19984439 -0.30010074
0001b0 77 8a 2d bf c2 a0 e6 3e 29 78 06 3f cd 90 02 bf
       -0.67789406 0.45044523 0.525271 -0.510022
0001c0 a4 a3 d9 3d 7c 42 ef 3f 92 65 e5 be ae 7e 1a 40
       0.10626915 1.8692164 -0.44804054 2.413982
0001d0 7e df 9b be 28 cd 9a be 91 e5 32 3f 3f 3c d5 be
       -0.30443949 -0.30234647 0.6988154 -0.41647527
0001e0 2e 29 b3 3f f3 fa 6f bf 44 2d 8f bf cd 8e d0 3f
       1.3996942 -0.93742293 -1.1185689 1.6293579
0001f0 65 7d 99 bf f7 31 76 3f 84 83 24 bf 65 fc 2f c0
       -1.1991392 0.9616999 -0.64263177 -2.74978
000200 71 21 b8 3f e3 47 5d 3f ac 13 8e be b7 ac a1 3f
       1.4385206 0.86437815 -0.27749383 1.2630833
000210 cd 5a 43 3f 72 6f bb be 84 77 f6 bf 03 0e 17 be
       0.76310426 -0.36608464 -1.9255223 -0.14751439
000220 9d 99 c9 bf e7 b4 cd 3d 83 49 6f 3f ce 92 96 3d
       -1.5750004 0.1004427 0.93471545 0.073522195
000230 00 a6 0e c0 b2 46 49 3f cf dd 9a 3f f1 35 9e 3f
       -2.2288818 0.786235 1.2098941 1.2360212
000240 80 d9 47 3f cc 79 e7 bf 43 38 86 3f 14 76 bb be
       0.78066254 -1.8084044 1.048592 -0.36613524
000250 16 ce cf bf 43 03 fb 3f ea 56 c0 3e 99 5f a9 bf
       -1.6234767 1.961037 0.3756631 -1.3232299
000260 c2 29 8f 3e b6 49 78 3f 01 ff 58 be 65 56 6e bf
       0.27961546 0.96987474 -0.21191026 -0.9310058
000270 8e 21 9a be 6c 9a 9c 3e 86 96 42 bf 5f c9 d7 bf
       -0.30103725 0.30586565 -0.7601093 -1.6858329
000280 cb a4 e2 3e 9f 83 20 3f 6b 39 09 3f 5c bf 37 bf
       0.44266352 0.6270084 0.5360324 -0.71776366
000290 dd 2f eb 3f 71 0e 00 c0 c3 c3 d7 be 15 d1 28 c0
       1.8373982 -2.0008814 -0.42141542 -2.6377614
0002a0 13 1d b9 3f 36 cb 99 3e 53 ee 2f 3f 91 37 13 3f
       1.4461998 0.3003785 0.6872303 0.5750666
0002b0 9a c4 f7 3e bb 71 9f 3f 1e 7e 51 bf 37 ee 98 bf
       0.48392183 1.2456583 -0.81833065 -1.1947697
0002c0 18 32 a1 3f 2a a2 55 be 73 34 12 bf 40 f0 17 c0
       1.2593412 -0.20862642 -0.5711128 -2.3740387
0002d0 e7 07 42 3f 87 68 6b 40 12 f4 e7 3f 98 54 4f bf
       0.7579331 3.6782548 1.8121359 -0.80988455
0002e0 d6 bc 51 bf 54 da 81 3f 3b 56 83 3f 1a 83 9a 3f
       -0.81928766 1.0144753 1.026069 1.2071259
0002f0 6a d9 cf 3e b4 65 0d 3f 0a e9 84 bf 33 f6 a8 bd
       0.4059556 0.5523331 -1.0383618 -0.08250084
000300 85 03 df be 0e f0 5b 3e c2 3a 79 bd f6 5c 77 bd
       -0.43557373 0.21478292 -0.06084705 -0.06039139
000310 6f 18 02 c0 11 ac a6 3d 39 6e 78 bf 46 2c 28 bf
       -2.0327413 0.08138288 -0.97043186 -0.65692556
000320 c7 b2 c6 3f 17 08 36 3f 17 c0 31 be 96 21 87 3f
       1.5523309 0.71106094 -0.17358433 1.0557125
000330 33 53 1e bf 2e e4 87 bf 3e b9 99 3f 51 d9 a9 bf
       -0.618457 -1.061651 1.2009656 -1.3269445
000340 7c d0 d6 bd d8 d1 b9 be d0 e4 ee 3f 4b 99 90 3f
       -0.10488984 -0.3629291 1.8663578 1.1296781
000350 26 8b 23 3f 6c d8 dd bf 9a c1 06 3e 5f 31 3c be
       0.638842 -1.7331672 0.1315979 -0.18378209
000360 6e c9 9b bf 68 7e 03 bf bb 83 61 bf 54 45 4b 3e
       -1.2170846 -0.51364756 -0.8809163 0.19850665
000370 7d 6e 37 bf e4 36 9d be f3 27 a7 bf c6 81 42 3f
       -0.71652967 -0.3070594 -1.3059067 0.7597927
000380 a6 90 b7 3f e6 d6 69 bf 28 7d 5f bf 13 12 32 3f
       1.4341018 -0.91343534 -0.8730035 0.6955883
000390 41 1f 3f bf 6c ba b6 3e 15 dd 4f bf 72 04 30 c0
       -0.74657065 0.35689104 -0.8119672 -2.7502713
0003a0 51 b9 02 40 c3 04 af bf 57 f1 82 3f 17 41 cb be
       2.0425608 -1.3673328 1.0229901 -0.39698097
0003b0 de e0 04 3f a6 4b 81 3f 73 f6 89 3f a2 05 b7 3f
       0.5190562 1.0101211 1.0778335 1.4298594
0003c0 2d b6 56 be 14 50 92 bf cc 22 82 3f 5d 40 c2 bf
       -0.20967932 -1.1430688 1.0166869 -1.5175892
0003d0 21 3a 7d 3f 32 a0 74 bd 5b 16 94 bf 8c e8 46 3f
       0.9891682 -0.059723087 -1.1569322 0.7769859
0003e0 ac ad 30 40 75 f3 75 be 1e 08 da 3f f1 f5 c1 3e
       2.7606 -0.24018653 1.7033727 0.3788295
0003f0 aa 67 60 bf 9a e4 cb bf e1 97 03 c0 92 c5 1b be
       -0.8765818 -1.5929139 -2.056145 -0.15212086

movie_gmf_embedding.weight f4 [1682, 16]
000000 a8 7f 5f bf 84 b9 6c 3f e1 30 7d bf 6a a2 b1 3f
       -0.8730416 0.92470574 -0.9890271 1.387769
000010 61 25 8d bf f0 9a 1f c0 25 fe cf 3f a0 cb d2 bd
       -1.1027032 -2.4938316 1.6249434 -0.10292745
000020 02 ad 8a 3e 75 e6 75 bf c1 bb 2d 3f 75 5c 1f 3f
       0.2708512 -0.96054775 0.67864615 0.62250453
000030 10 33 ee 3f a7 39 63 3f 38 2b 0a 40 fd 17 98 bf
       1.8609333 0.88759845 2.1588879 -1.1882321
000040 a9 c9 8a bf fc 1c f4 be 68 d3 00 c0 39 8e 1b 40
       -1.0842792 -0.47678363 -2.0129032 2.4305556
000050 9b e8 53 3d 6b 48 af bb 1e 71 02 3e f2 f7 38 be
       0.0517355 -0.005349209 0.12738463 -0.18063334
000060 8a 26 1e 3e de 55 95 3e 71 c5 00 bf 91 eb c4 bf
       0.15444389 0.29167074 -0.5030127 -1.5384389
000070 df 8c 92 3f d7 03 15 bc 1d 9e 92 3f 2e 42 ea be
       1.144924 -0.009095154 1.1454502 -0.45753616
000080 1c 91 6a 3e c1 d6 fa bf d3 ba 92 bf 92 69 28 40
       0.22906917 -1.9596788 -1.1463264 2.6314435
000090 32 0b f2 3c 18 3a 90 bf 11 92 8f 3f bc e9 31 3f
       0.029546354 -1.1267729 1.1216451 0.69497275
0000a0 72 dd 3b bf da 38 9c be ed 23 14 bf 4b 16 30 bf
       -0.73384774 -0.30512124 -0.5786732 -0.68784016
0000b0 74 8a 29 3f 6d 19 76 be a7 9e 74 3d 53 72 e6 3f
       0.6622689 -0.24033137 0.059721615 1.8003639
0000c0 c0 fd ab bf 63 94 0c c0 c5 a9 3f 3f fc 4e fb bd
       -1.3436813 -2.1965568 0.7486842 -0.122709244
0000d0 fa d0 9b be 05 b6 e1 bb 59 1d 8c bf e2 c1 1f c0
       -0.30432874 -0.0068881535 -1.0946456 -2.4962087
0000e0 1c 88 87 3f d2 15 57 bf 55 3c ec 3e 97 f4 96 3f
       1.0588412 -0.8401767 0.4613978 1.1793393
0000f0 eb 29 9a bf f4 6a 0c bf 17 7e 35 3e cb b5 56 be
       -1.2044042 -0.548507 0.1772388 -0.20967786
000100 d1 b1 03 3f a0 29 07 c0 b0 a7 5e bf 15 1f 1e 3f
       0.514432 -2.1119156 -0.8697462 0.6176618
000110 4f b9 5c 3f 57 0f 1f c0 c8 ce 0c c0 fb 5e 98 bf
       0.8622026 -2.4853113 -2.200121 -1.1903986
000120 ee 1e e7 3e 4a 21 90 bf 24 26 aa 3f c4 ff 42 3f
       0.45140785 -1.1260159 1.329289 0.7617152
000130 29 0b a3 bd 1e b1 eb bd cf da f2 bf 4c c7 13 bf
       -0.07961113 -0.11508392 -1.8973025 -0.5772598
000140 ef 0a 03 bf 06 06 a5 3e e9 ef 80 bf 3f f7 90 bf
       -0.5118856 0.32231158 -1.0073215 -1.1325454
000150 f6 7c 9e bf 80 33 b2 3f 5f 34 fe 3d 61 70 2e c0
       -1.2381885 1.3921967 0.12412333 -2.725609
000160 5f 74 c9 be 3c d8 15 3f 03 90 a6 3e e2 08 3a 3f
       -0.39346597 0.5853307 0.32531747 0.72669804
000170 8b 8f c3 3f ac 0e 66 bf 89 6a 81 be 5c 63 27 bf
       1.5278181 -0.8986614 -0.25276592 -0.65385985
000180 ad 71 ba bf 6d 99 ef be 4c c7 70 3f eb 44 92 3f
       -1.4565941 -0.46796742 0.940541 1.1427282
000190 69 fe 04 bf dc af 36 3e 4c 8d 61 3f 6e c4 91 bf
       -0.519507 0.17840523 0.88106227 -1.138807
0001a0 ba 4f 65 3f 97 21 ae bf c3 ca 20 3e b8 88 82 bf
       0.8957478 -1.3604001 0.15702347 -1.0197973
0001b0 20 f6 3f 3f e1 e1 ad 3f 9c 81 c8 3e 61 37 12 3f
       0.7498493 1.3584558 0.39161384 0.5711575
0001c0 34 8c 6b 3f 0d 1f 60 bf af e3 88 3f 60 0e 91 bf
       0.9201081 -0.8754738 1.0694484 -1.1332512
0001d0 6f 3d 81 3f e6 09 f5 3c 30 ba 09 bf 2e 4f 9e 3d
       1.0096873 0.029911947 -0.53799725 0.07729946
0001e0 66 af 69 3f 7f 5b 87 bf 11 38 b8 3e 39 ba 1f 3e
       0.9128326 -1.0574797 0.35980275 0.15598382
0001f0 eb 40 97 be 94 f4 01 c0 c7 44 29 c0 79 20 b1 bd
       -0.29541716 -2.0305529 -2.6448228 -0.08648772
000200 6a 34 97 3f cd bf 09 bf 76 79 43 be 94 21 0f 40
       1.181287 -0.5380829 -0.19089302 2.2364244
000210 7e 11 c1 3f 43 53 99 bf 6e 93 29 bf b1 a0 b5 3e
       1.5083463 -1.1978534 -0.66240585 0.3547416
000220 32 00 b1 be 1d 61 13 40 9e 80 8c 3e fa 71 18 be
       -0.34570462 2.3028023 0.27441877 -0.14887229
000230 21 69 b9 be 1c f1 81 3f b4 9f b0 3c cb ee 01 40
       -0.3621302 1.0151706 0.021560527 2.0301998
000240 23 e0 cc be 56 d2 8f 3d fb b6 31 bd 9c 33 b8 3f
       -0.40014753 0.0702254 -0.043387394 1.439075
000250 ec 8a 5b bd e5 9b 2b be bf c7 3c 3f fb 18 d1 bf
       -0.053599283 -0.16758688 0.7374229 -1.6335748
000260 25 ed e2 be 5a b7 eb bd 73 ac 37 be 21 e6 10 3f
       -0.44321552 -0.11509581 -0.17936878 0.5660115
000270 14 11 17 3f 64 10 f2 3e c6 e6 1b 3f f9 a0 64 3f
       0.59010434 0.4727813 0.6089901 0.89308125
000280 eb 0f d6 3e 98 48 8d 3e ea 31 ac 3e 0d f8 39 bf
       0.4180902 0.27594447 0.3363183 -0.7264412
000290 5a 42 99 3f 67 88 91 3f b1 bd 1a 3f f1 94 a4 be
       1.1973374 1.1369752 0.60445696 -0.32144883
0002a0 51 c6 75 3e bd 21 9c be ed fd 6e 3d 35 f6 9e bf
       0.24001433 -0.3049449 0.05834763 -1.2418886
0002b0 b7 4a d3 bf 1b 73 51 3e bd 7e 7e bf 63 11 de 3e
       -1.6507176 0.20454066 -0.9941214 0.4337264
0002c0 d1 09 64 bf c2 83 50 bf 21 76 cf be 42 07 69 bf
       -0.8907748 -0.81451046 -0.40519813 -0.910267
0002d0 18 3f 4a bf 68 3c 04 3f 09 b9 42 3e 29 6b 6b bf
       -0.79002523 0.5165467 0.19015898 -0.9196039
0002e0 b6 ec c9 bf 5f 87 92 bf 25 ea 3b c0 20 c0 b1 be
       -1.5775363 -1.1447562 -2.936166 -0.34716892
0002f0 f7 d8 d5 be fe cc 85 3f 35 df 40 3e f8 ec 72 3f
       -0.41767094 1.0453184 0.18835147 0.94892836
000300 0b ba a7 3f c1 f9 fe bf 6c a8 0e bf fc 06 a2 3c
       1.3103651 -1.9919969 -0.5572574 0.019778721
000310 fe 17 8f 3f 2b 7c 75 be f6 6f 73 bf 43 d6 3e be
       1.1179197 -0.23973148 -0.95092714 -0.18636422
000320 f0 5e cf be 04 9e 41 3f d8 85 6e 3f a4 26 1b 3f
       -0.4050212 0.7563174 0.9317298 0.60605836
000330 ab 37 b2 3e 9b ac 8c bf d8 76 82 bd 46 39 da 3f
       0.34808096 -1.0990175 -0.06370324 1.7048728
000340 74 9f 1a 3f 5c 20 7e 3f 7c d1 41 3f 11 2a 15 be
       0.60399556 0.99268126 0.7571027 -0.14566828
000350 09 2e 5f 3f 0a 2d 97 3f da a0 1f c0 f2 d8 2a bf
       0.8717962 1.181062 -2.4941926 -0.6673728
000360 89 68 9f be bc 3e 30 3f 48 5f e7 3d 94 6c 96 be
       -0.31134441 0.68845725 0.1129747 -0.29379714
000370 dd 47 a0 bf 89 14 d5 be ca 73 6d 3e 81 41 40 bf
       -1.2521931 -0.4161723 0.23188701 -0.7509995
000380 88 3d 64 bf a4 20 3d 3f ab f7 83 3f a3 72 d3 bd
       -0.8915639 0.7387793 1.0309957 -0.103245996
000390 39 b6 e0 3e 9f 6d 0f bf 0c 50 7f 3f ab 8e 6a be
       0.43889025 -0.56026644 0.99731517 -0.22905986
0003a0 bf 5b 07 bf cb 3d be be 3a cb 5c be ea ac 58 bf
       -0.5287437 -0.3715652 -0.215619 -0.84638846
0003b0 cb ab aa bd 74 76 80 bf 28 b7 bb 3f 36 93 d5 3e
       -0.08333548 -1.0036149 1.466527 0.41713876
0003c0 3e 00 0d c0 29 1d 03 3e bf b8 0b bd 5f 14 58 bf
       -2.2031398 0.12804092 -0.034111734 -0.84406084
0003d0 f9 1f 47 be af b9 af 3f 11 af c6 be eb 16 ab bf
       -0.1944579 1.3728541 -0.3880544 -1.3366369
0003e0 4a 2f aa be d6 93 f2 bc dc 7e 2d 3d 88 09 49 3e
       -0.33239204 -0.02961151 0.04235731 0.19632542
0003f0 eb 43 8a bf f5 27 27 bf e7 f4 da be c8 74 68 be
       -1.0801977 -0.65295345 -0.4276497 -0.22700799

user_mlp_embedding.weight f4 [943, 16]
000000 e3 72 43 3f c0 94 0f 40 94 00 27 40 04 5c 9d bf
       0.7634718 2.243454 2.6094103 -1.2293706
000010 ba c9 fb 3e 05 2b d6 3e 6a 92 7f 3f 93 12 b0 bf
       0.49177343 0.41829696 0.99832785 -1.3755668
000020 79 c3 32 bf 7b 18 60 bd 06 31 92 bf 5c 19 b9 3e
       -0.6982952 -0.054710846 -1.1421211 0.3615216
000030 d6 55 b8 bd 28 c3 81 bf 23 6a a8 bf 3d a6 4a 3e
       -0.09000747 -1.0137682 -1.315739 0.19789977
000040 36 31 21 bf 98 ea 4a be 38 28 44 be 77 c8 5b 3f
       -0.62965715 -0.19816053 -0.19155967 0.8585276
000050 9d 52 32 3e 0e 9b 31 3d 7e 40 08 40 18 2a ce 3f
       0.17414327 0.043360762 2.1289363 1.6106596
000060 3e a8 33 bf f1 cf b3 be c8 a7 2e 3f 2e 33 08 3f
       -0.7017859 -0.35119584 0.68224764 0.53203094
000070 ba e4 27 3f 1e 82 42 bf 2b 6e 63 be 5d ac a9 3f
       0.65583384 -0.75979793 -0.22209994 1.3255726
000080 ca bc 59 bf 91 9f b3 3f 5e 1f 10 40 27 bd 28 c0
       -0.85053694 1.4033071 2.2519145 -2.636545
000090 07 0d 16 bf 29 c4 73 be 00 45 6a 3f 69 18 f9 bd
       -0.5861363 -0.23805298 0.91511536 -0.12162859
0000a0 19 ba cf 3f bb 19 b2 bf 6f 4f d7 3d f5 de 8a bf
       1.6228667 -1.3914102 0.10513198 -1.0849291
0000b0 79 10 9b bf 73 53 6e bf 0e 63 35 bf 6c 3f e2 bf
       -1.2114402 -0.93096083 -0.7085427 -1.7675605
0000c0 6a 99 95 be cc f3 df 3e 3e e9 80 3f 5f 67 b0 be
       -0.29218608 0.4374069 1.007118 -0.34453866
0000d0 76 9d 31 3f b1 43 92 bf e7 c7 dc be 05 6f 99 3f
       0.6938089 -1.1426908 -0.43121263 1.1987005
0000e0 40 c1 c8 3f 58 b4 94 3f dd cf de 3f 60 db c9 3d
       1.5683975 1.1617537 1.7407185 0.098562956
0000f0 20 ba b3 3f 67 51 69 bf fa b8 d2 bf 31 6f a6 bf
       1.4041176 -0.91139835 -1.64627 -1.3002683
000100 6f d2 8b bf 9f da 1d bf 87 d6 cb be 91 0b b7 3f
       -1.0923594 -0.61661714 -0.3981211 1.4300405
000110 b4 78 16 bd 0c 91 43 c0 a3 77 60 3e fd d0 42 bf
       -0.036736205 -3.055728 0.21920638 -0.7610014
000120 66 ce 37 3f 22 c0 81 3f e5 a4 90 bf 6e bf 99 be
       0.71799314 1.0136759 -1.1300322 -0.30028862
000130 08 8b 9a bf d0 4a 83 bf 63 cf ed 3f 0e b8 07 3f
       -1.2073679 -1.0257206 1.8578914 0.5301522
000140 fe e6 cc bf 3f bd 75 3d 9d d2 e4 3c 1c a1 91 3f
       -1.6007993 0.059994932 0.02793246 1.1377292
000150 8e 28 bc bf af 27 7b 3f 6e 6c 42 3f 48 2e 89 3f
       -1.4699876 0.9810743 0.759467 1.0717249
000160 c5 81 1c 3f c3 06 e3 bf 19 58 6e 3e 9b a5 ac 3d
       0.6113551 -1.7736439 0.23275794 0.08430024
000170 1d 79 30 3e 73 90 7e 3f 0d fa f9 bf 5d 99 d0 be
       0.17233701 0.9943916 -1.9529434 -0.40742007
000180 38 1c 8f 3d 80 c1 50 bf ca 37 80 bd 72 a8 0c bf
       0.06987804 -0.8154526 -0.06260641 -0.5494453
000190 e2 b3 f1 3f d3 e3 66 bf f1 12 0d be 69 3b 22 c0
       1.8883021 -0.9019138 -0.13776757 -2.534876
0001a0 58 a5 b2 3e 8d 72 4d 3d 4c 32 c4 3c ae a3 45 3f
       0.34891772 0.050158072 0.023949765 0.7720288
0001b0 6b 3c 4b be 34 b1 97 3f bb 2f fb 3e 86 91 4c be
       -0.19847266 1.1850953 0.49059853 -0.19977388
0001c0 1c 21 64 be b3 28 93 3f 74 6a bb 3f 3e 11 52 bf
       -0.22278255 1.1496795 1.4641862 -0.8205756
0001d0 8b c9 e1 3e b6 e7 fb 3f 55 82 b4 bf 8b 10 f5 bf
       0.44099078 1.9680088 -1.4102274 -1.9145674
0001e0 4c 82 3b bf aa 05 f2 3e 43 eb a9 be 04 42 b9 3e
       -0.7324569 0.47269946 -0.33187303 0.36183178
0001f0 07 19 93 bc 9e 58 43 40 ca 96 72 bf 38 99 2b bf
       -0.01795627 3.0522838 -0.94761336 -0.6703067
000200 c4 40 2c 3f 12 f5 39 40 bf f3 03 3f 41 1c 06 bf
       0.67286325 2.905583 0.515438 -0.5238686
000210 0b 56 9c 3f 88 d1 63 3f 76 64 22 bf 7d d9 70 be
       1.2213758 0.88991594 -0.6343454 -0.23520465
000220 f6 e5 ed bd 17 66 eb be 7c c8 84 3f 5d d2 91 be
       -0.11616127 -0.45976326 1.0373683 -0.28480807
000230 bd 11 0f bf 71 12 93 3f 13 f1 d6 bd 69 a7 a5 be
       -0.5588644 1.1490003 -0.104952 -0.32354286
000240 93 01 00 3f c0 cb 25 bf 1d 85 ff be d3 f1 1e bf
       0.500024 -0.6476402 -0.49906245 -0.62087744
000250 4e f6 83 3f 67 8d 87 3f 3b 11 a8 be 7f c6 db bd
       1.0309541 1.0590028 -0.32825646 -0.107312195
000260 35 54 c4 bf fa 6e eb bf 04 db 3a bf 79 13 a0 3e
       -1.5338198 -1.8393242 -0.7299044 0.31264856
000270 7b 49 61 3f 9c f5 ed 3f 2f d3 91 3f 84 51 a4 3f
       0.8800275 1.8590579 1.1392573 1.2837377
000280 76 45 c1 3e 38 40 92 3f 23 0f a8 3f 05 0a 36 3f
       0.37748307 1.1425848 1.3129619 0.7110904
000290 79 73 a5 3e bc 55 db bf 06 43 4d bf da 72 56 3e
       0.3231466 -1.7135539 -0.80180395 0.2094225
0002a0 e2 37 ad bf fe 33 8b 3e bd 8b c9 3f 77 55 84 3f
       -1.3532679 0.27188104 1.574577 1.0338582
0002b0 c8 19 db 3e a0 0a e6 3d 05 9e ea 3d 9c 12 98 3e
       0.42793107 0.11232495 0.11455921 0.29701698
0002c0 0a 35 85 bf 9b ec 18 be 93 83 ed 3f 1a 06 05 40
       -1.0406811 -0.14934008 1.8555778 2.0784974
0002d0 7f 44 9c bf 98 b8 91 bf d1 67 f1 bd eb c4 76 3e
       -1.2208403 -1.1384459 -0.117873795 0.24098556
0002e0 b4 56 7c bf 6c 46 35 3f 33 77 be 3f 29 7f a6 3f
       -0.985698 0.7081058 1.4880127 1.3007556
0002f0 85 75 1d be 55 96 6e 3f ce 6f 55 3f 9e 8f 7f 3f
       -0.15376861 0.9319814 0.83373725 0.9982852
000300 95 c2 3e be a0 a4 23 c0 d4 9c 67 bd a3 39 c9 bf
       -0.18628915 -2.556923 -0.056546047 -1.5720714
000310 1a ec d4 3e 43 fd 2a 3f 41 eb 56 3f 33 be d6 bf
       0.4158638 0.66792697 0.8395272 -1.6776794
000320 54 c3 0b 3f ed 29 d4 bf ed 79 c2 bd ee 24 54 3f
       0.5459492 -1.6575295 -0.09495912 0.8286885
000330 05 bd e8 bd 06 8a 50 bf 6a 18 c2 bf c9 17 d6 3e
       -0.113641776 -0.8146061 -1.51637 0.41815022
000340 3a c4 6d 3f 96 05 72 3f 69 dd a9 bf 87 bd da 3e
       0.9287754 0.94539773 -1.3270694 0.42722723
000350 35 7a 1a bd 73 6c 93 bf 71 c1 82 3f 8b 15 b1 bf
       -0.037714202 -1.1517471 1.0215284 -1.3834699
000360 75 fa 10 be 8d cf f8 3e b5 22 9a 3f b5 93 f4 3d
       -0.14158042 0.4859585 1.2041842 0.119422354
000370 cc 08 2a be a5 2c 7e be 73 77 1f 3f f9 6c d2 bf
       -0.16604918 -0.24821718 0.6229164 -1.6439506
000380 4c 76 42 3c 6d c8 67 bf f0 64 ad 3e 9b e2 88 bf
       0.0118690245 -0.905402 0.33866072 -1.0694155
000390 1e 8c 5a 3f 50 a0 aa be f4 fb a9 3f 87 b0 0f 3f
       0.8537005 -0.33325434 1.3280015 0.56128734
0003a0 09 51 91 bf 93 48 c4 be b2 87 b7 3f 79 02 6b bf
       -1.1352855 -0.3833662 1.4338286 -0.9180065
0003b0 fa 09 1a be f8 26 bc 3f 3f 71 99 be 9b 7e 77 3d
       -0.15042868 1.4699392 -0.29969212 0.060423475
0003c0 37 d0 9f 3f 3e 63 3d bf 87 31 01 3f 55 65 9f bf
       1.2485417 -0.73979557 0.504662 -1.2452799
0003d0 6c 02 73 3c b2 3b 77 3d a0 45 09 bf 30 32 9b 3f
       0.01483212 0.060359664 -0.53621864 1.2124691
0003e0 8c a8 3c 40 9f 60 4a bf cf 6a 3d bf e9 56 84 be
       2.9477873 -0.7905368 -0.739911 -0.25847557
0003f0 73 da 90 bf e9 07 0f be 8c 98 88 3e e8 02 42 3f
       -1.1316665 -0.13967861 0.26678884 0.75785685

movie_mlp_embedding.weight f4 [1682, 16]
000000 ac d7 98 3f b4 40 5c 3c 94 e8 12 3e b8 88 23 bd
       1.1940818 0.013443161 0.14346534 -0.039925307
000010 87 5c bc be 31 ad 29 3f e5 2d 0b 40 fb 2d 91 bf
       -0.36789343 0.66279894 2.1746762 -1.1342157
000020 ac 28 a5 bf 19 b3 94 bf 95 5a 16 bf fc 48 61 bf
       -1.2903037 -1.1617156 -0.5873197 -0.8800199
000030 f7 1b 53 bf 6b 73 e4 3f 33 8b 0c 3e 6d fb a3 3f
       -0.82464546 1.7847723 0.13724975 1.2811104
000040 20 6a e2 3f c4 0b 6a bf d8 6d 9e 3e c3 d4 3f 3e
       1.7688637 -0.914242 0.3094318 0.18733506
000050 91 4a f3 3d f7 02 b6 3f b2 5b 25 40 be 55 66 be
       0.11879457 1.4219655 2.5837216 -0.22493646
000060 6d 8e 62 bf b9 91 51 bf 79 89 27 3f 01 6a 18 3f
       -0.88498574 -0.8186298 0.6544414 0.5953675
000070 51 03 01 bf 77 4f 80 bf bf 8b a2 3f 00 04 85 bf
       -0.50395685 -1.0024251 1.2698897 -1.0391846
000080 d7 5b 19 be a9 f1 d8 3e a5 06 45 bf 8a fb 9f bf
       -0.1497644 0.42371872 -0.76963264 -1.2498639
000090 9c f1 a5 be e3 d3 84 be f1 70 80 bf cd b5 90 3f
       -0.32410896 -0.25942907 -1.0034467 1.1305481
0000a0 4d 98 88 bf 02 d3 dc bd 71 e5 b6 be 25 3b d5 3f
       -1.0671479 -0.10782434 -0.35721925 1.6658674
0000b0 9a a5 19 c0 ad 25 37 3f 04 f8 5e 3f 1e 91 00 bf
       -2.4007325 0.71541864 0.8709719 -0.5022143
0000c0 ce cd 09 40 8b 2f c5 3f 07 eb 8e bf 91 e3 0c c0
       2.1531863 1.5405134 -1.1165475 -2.2013896
0000d0 7e 47 f6 bb 3e 45 4d bf 34 ae 10 be b4 c5 2f 3e
       -0.0075158468 -0.8018378 -0.14128953 0.17165262
0000e0 52 0f 75 3e f9 c0 a3 3e 52 d0 7d bf 6b 73 87 be
       0.23931625 0.31983164 -0.99145997 -0.26455244
0000f0 f6 a2 b7 3e 23 c2 ca be 78 94 81 be e7 18 bc 3f
       0.35866517 -0.3960124 -0.25308585 1.46951
000100 a3 ae 88 bd 12 2b 91 bf b4 56 0b be 14 93 4a bf
       -0.06673934 -1.1341269 -0.13607293 -0.79130673
000110 bf 0e 89 bf 31 0d e3 bd 49 ec bf 3f 7a e5 3c 3d
       -1.0707625 -0.110865004 1.4993984 0.046117283
000120 35 8c 2a be 3b ec e8 bf 8e cd 92 bf 19 bc 2f 3f
       -0.16655047 -1.8197092 -1.146898 0.6864639
000130 79 05 cc 3d b1 fb ec 3e 4a 0a d3 3d 1b 02 65 be
       0.09961981 0.46285775 0.10304697 -0.22364084
000140 33 09 21 40 a5 b1 04 be 80 c7 c3 3f 9d aa 19 3f
       2.5161865 -0.12958391 1.5295258 0.6002596
000150 d8 56 cb bf c5 0f 0a 40 86 ce fb bd 74 08 3c bd
       -1.5885878 2.1572125 -0.122952506 -0.0459065
000160 f4 0c 7d be db e5 71 3e 11 89 72 bf 17 03 be be
       -0.24711972 0.23622839 -0.94740397 -0.37111732
000170 de 51 1a be ef fb 0e bf 10 75 16 bd 80 f3 52 3f
       -0.15070292 -0.5585317 -0.036732733 0.824028
000180 e1 9f e5 3b dc 16 40 bf ca a8 89 be 56 67 14 bb
       0.0070075844 -0.7503488 -0.26886588 -0.00226446
000190 60 b4 d7 3d f1 46 8f 3f 89 01 04 c0 7b d8 58 bf
       0.10532451 1.1193525 -2.0625937 -0.84705323
0001a0 09 3b f4 bf 8e 31 cf 3d cc 7d c9 be 65 07 09 40
       -1.9080516 0.10116874 -0.39353788 2.1410763
0001b0 b1 37 63 bf 15 64 e9 be 8f 2f 55 3f 42 1d 32 3f
       -0.88756853 -0.4558417 0.83275694 0.69575894
0001c0 d1 94 12 bf 94 63 29 bf fb 4a 3a be 89 df 1b be
       -0.57258326 -0.6616757 -0.18192665 -0.1522199
0001d0 9f 34 be bf 4d 4e 07 3f ad 09 c5 3e bd 97 8e 3f
       -1.4859809 0.5285385 0.38483945 1.1140057
0001e0 84 f5 c6 3f 1d af 6b be ca e6 ba bd 56 29 9f bf
       1.5543675 -0.23016019 -0.09126051 -1.243449
0001f0 3f 8c 38 be bc 04 8e 3e b4 a1 7e 3c ce 9e b8 3e
       -0.1802225 0.27737987 0.015541483 0.36058658
000200 ce d4 37 bf 5e f4 63 3f 28 aa cf 3f d8 9d d8 3f
       -0.7180909 0.8904475 1.6223803 1.692317
000210 cc b7 1b bf d3 6a fc be c3 33 c0 bf 89 4f 52 bf
       -0.60827327 -0.4930025 -1.5015796 -0.8215261
000220 2d c1 ce 3e 19 27 c2 bd e1 ba 3d be 32 7a 90 be
       0.40381756 -0.094801135 -0.1852832 -0.28218228
000230 e9 d1 04 3f db 57 0e 40 00 d2 37 bf 7c 8b 1f 3e
       0.518828 2.2241123 -0.7180481 0.15580553
000240 e1 fc a7 3f 27 31 12 be 9e 7f 3b bf 2f 2b 1f be
       1.3124048 -0.14276563 -0.73241603 -0.15543817
000250 7a 3a c9 bf 1d 68 e2 bf 44 d9 f5 bd 15 11 2a 40
       -1.5720971 -1.7688023 -0.12004331 2.6572926
000260 94 6b 42 bf 84 87 12 bf 40 50 d4 bf 11 d4 c9 be
       -0.759454 -0.5723803 -1.658699 -0.39419606
000270 62 9b e9 be ec 00 12 c0 2d 38 3c 3e 2f c4 45 be
       -0.4562636 -2.2813063 0.18380804 -0.1931312
000280 50 99 30 40 e2 c2 ae bf cd a3 1e be 5f a3 90 3e
       2.7593575 -1.3653224 -0.15492173 0.28249642
000290 05 55 7e 3e 3a 4f ba bf 3d 0c ac 3e 9f b4 71 bf
       0.2483712 -1.4555428 0.33603087 -0.9441623
0002a0 07 07 e1 be d8 ff 49 3e e9 7e f6 be e9 65 e0 3d
       -0.43950674 0.19726503 -0.481437 0.10956938
0002b0 83 ea a3 bf e9 72 42 3f 61 7e 6c 3f 3c 43 5d 3e
       -1.2805942 0.7595659 0.9238034 0.21607679
0002c0 0d 5e ac 3e fb 36 70 3e 09 a4 40 3f 04 5f a6 3d
       0.33665505 0.23458473 0.752503 0.081235915
0002d0 79 07 f4 3e fb d7 27 bf 2c e7 9d 3e ee 00 7b bf
       0.4766195 -0.65563935 0.30840433 -0.98048294
0002e0 50 56 8e be 92 12 33 bf d8 61 09 bf ab c4 66 3f
       -0.27800226 -0.6995021 -0.5366492 0.9014384
0002f0 b4 e5 7c 3f 7d f9 2c 3f e2 61 d3 bf 46 ff 52 3f
       0.98788 0.6756819 -1.6514246 0.82420766
000300 2f 5f 79 3f 53 cd 58 bf c6 87 5e be 0a 47 fe 3b
       0.97410864 -0.846883 -0.21731481 0.0077599334
000310 7f e9 20 3f 13 a6 af 3f 53 df 81 be 6c 6e c1 bf
       0.62856287 1.3722557 -0.25365695 -1.5111823
000320 0f 65 3d 3f af 1d 7b 3e 65 c6 2d c0 af 75 e7 3e
       0.7398233 0.24523042 -2.715234 0.45206973
000330 81 cb aa bf 41 22 a1 3e b4 a0 33 bd ca 7d a9 bd
       -1.3343354 0.31471446 -0.04385443 -0.082759455
000340 d9 f1 1f bf e0 b4 5b 3f 2d 9e 4b bf dc 5e 43 3f
       -0.62478405 0.8582287 -0.7953823 0.7631662
000350 50 e3 fd bd d9 35 26 bf b9 3f 03 bf b1 68 29 bf
       -0.12396872 -0.64925915 -0.5126911 -0.6617537
000360 2b 34 81 3f 64 08 a9 bf 0f 82 82 be b3 19 06 c0
       1.0094045 -1.3205686 -0.25489852 -2.0953186
000370 44 ba 7f bf 37 01 04 be 86 0e 80 bf 3b e5 e1 bd
       -0.99893594 -0.12891088 -1.0004432 -0.1103005
000380 f5 f0 19 be 9e d9 db be aa 27 5c 3e 1c 1d 85 bb
       -0.15033324 -0.42939466 0.21499506 -0.004062308
000390 96 3b 0c bf cf 99 f0 be 2c e3 28 bf af b7 3c 3f
       -0.5477842 -0.46992347 -0.65971637 0.7371778
0003a0 2b c4 ad be 21 e1 21 bf c1 4d 6c 3e d4 75 78 3e
       -0.33938727 -0.63234144 0.23076536 0.24263698
0003b0 2d a6 87 bf 7b a2 ac be a3 46 ed bb 6b 5b 0e 3f
       -1.0597588 -0.33717713 -0.0072410866 0.5560824
0003c0 bd fa 11 bf 6f 86 d9 3f f5 b2 03 40 01 03 a1 be
       -0.5702322 1.6994151 2.0577977 -0.31447604
0003d0 70 5c 62 3e f9 fe a0 3f bf 57 86 bf af 29 b2 3d
       0.22105575 1.2577811 -1.0495528 0.08699357
0003e0 33 42 ab bf 50 56 a8 3f fb cc 3e bf ce b6 af bf
       -1.3379577 1.315134 -0.74531525 -1.3727663
0003f0 3b da 34 be 61 06 65 3f 24 f1 18 be 96 a6 57 be
       -0.17661373 0.8946286 -0.14935738 -0.21059641

mlp_layers.0.weight f4 [16, 32]
000000 a5 12 94 3d 16 92 9a 3e dc 78 93 3c d8 64 d1 be
       0.07230119 0.3018958 0.018001966 -0.4089725
000010 65 3c ae 3c 1e f7 5e 3e 45 0d 7b 3e 0c f9 88 3e
       0.021269033 0.21773955 0.2451678 0.26752508
000020 96 d5 ca be fb cb e4 3e eb 9e 9f bd af 87 54 3e
       -0.39616078 0.44686875 -0.07793983 0.20754884
000030 98 9b d0 3e a7 ac a8 bd 54 c5 e7 bd d7 5b 95 3d
       0.4074371 -0.08236056 -0.11316934 0.07292908
000040 87 53 48 be 46 a1 08 bd 72 cd d5 bd 6f 58 8f be
       -0.19563113 -0.033356927 -0.10439576 -0.27997157
000050 81 89 90 3c 52 7f ce 3d 53 1a 3c 3e 05 15 39 3e
       0.017643692 0.10082878 0.18369417 0.18074425
000060 8f bf b0 3e 6f 5d cb 3d e4 5a 5b 3e b0 19 03 bd
       0.34521148 0.099299304 0.21421391 -0.03200692
000070 fa bf f1 3d 15 d1 95 3e 70 4c bb bd 94 13 e3 bd
       0.11804195 0.2926108 -0.09145439 -0.110877186
000080 dd e4 0f be 6d 90 e0 bd c8 cc 07 3e cb e0 b9 bc
       -0.14052148 -0.10965047 0.13261712 -0.022690197
000090 a6 2b e6 be a0 f5 2c bc 83 2a 65 3e 40 02 4e 3e
       -0.44955176 -0.010556608 0.22379498 0.20118046
0000a0 3a ed e5 be 67 07 44 be 4c ec 81 be cb 19 a9 3e
       -0.44907552 -0.19143449 -0.25375593 0.3302749
0000b0 63 c6 aa 3e 4f dc 44 bc 0c 0f e6 be 81 94 a4 3e
       0.33354482 -0.012015416 -0.44933355 0.3214455
0000c0 f3 f0 04 3e a7 c0 86 3e 7a 17 cc 3d b5 9f b3 bd
       0.1298254 0.26318857 0.09965415 -0.08770696
0000d0 c8 62 0b be 28 f6 a6 be a4 13 37 bd 36 80 26 bd
       -0.13611901 -0.32609677 -0.044696465 -0.040649615
0000e0 cc d2 a8 3d f3 e2 37 3d 22 3b 9d 3d 26 b4 ff 3b
       0.08243331 0.04489417 0.07677294 0.007803458
0000f0 85 d7 f3 3b ad ab 07 be 34 2f bd bd ac 8a 86 be
       0.0074414634 -0.13249083 -0.09237519 -0.26277673
000100 76 86 08 bd fb 05 8e 3d 4d 34 a8 3d e5 c5 00 3e
       -0.033331357 0.069347344 0.082131006 0.12575491
000110 fb 01 2a bd a0 82 19 bd 30 0e 21 be 66 1f 79 be
       -0.041505795 -0.03747809 -0.15728068 -0.24328384
000120 9b 2f 12 be a7 7d 1b 3e 82 cc 97 3e 20 46 bb 3d
       -0.14275973 0.15184651 0.29648215 0.09144235
000130 8e 0d 01 be 4d f5 78 3e 69 72 df 3e 02 9a 4d 3e
       -0.12602827 0.24312325 0.43641976 0.2007828
000140 f5 54 3c be 76 76 65 bd a2 d3 a6 bd 4a d3 95 bd
       -0.18391784 -0.056021176 -0.081458345 -0.07315691
000150 1f 62 d5 3e d4 30 a1 3d cb db ab 3e 03 bd 21 be
       0.41676423 0.07870641 0.33566126 -0.15794758
000160 a4 8d 76 be a5 d9 32 be 96 a0 5d 3e 5e 44 37 3b
       -0.24077469 -0.17465837 0.2164329 0.0027964334
000170 91 dd 87 3e fd 5e 8d 3e b2 5f bd 3d 42 ae df be
       0.2653623 0.27611533 0.09246768 -0.43687636
000180 db 98 b3 3d 1f 10 16 be d0 b1 8c b8 96 fb 91 3e
       0.08769389 -0.14654587 -6.7088404e-05 0.28512257
000190 c8 ef d8 bc 05 79 b0 be 23 9e e7 be 47 0d 2f be
       -0.026481524 -0.3446733 -0.45237836 -0.17094909
0001a0 c0 1c ec 3e 1a 0a fe be 4b 8a 62 3e 29 17 6b be
       0.46115685 -0.49617082 0.22123067 -0.22958054
0001b0 73 96 a0 be 59 3f 8f be 33 e6 f5 3d 1e a3 6f be
       -0.31364784 -0.27978018 0.12006798 -0.23402068
0001c0 c4 79 b7 3d a4 38 d7 bc 7d 1b d7 bb 47 28 62 be
       0.08958772 -0.026272126 -0.006564556 -0.22085677
0001d0 52 25 29 be ba 42 bb bb 20 0f 55 3e 65 ce c9 3d
       -0.16518143 -0.0057147415 0.20806551 0.0985382
0001e0 f4 14 89 3e 55 98 32 3e 6e 11 5c bd e5 bb 4e 3d
       0.26773798 0.17440923 -0.05372756 0.05047216
0001f0 56 e5 bd 3d 92 44 1f 3e e0 d0 2a 3e 90 64 1b 3e
       0.09272258 0.15553501 0.16681242 0.1517508
000200 c5 51 94 bd 4f 66 4f be af e1 da bc 55 04 7c bd
       -0.07242159 -0.20253871 -0.026718942 -0.06152757
000210 da a9 49 3d db d2 83 bd 7c 57 1b b9 85 7f ba be
       0.04923425 -0.06436702 -0.00014814542 -0.36425415
000220 55 00 bf bd 16 99 a1 be c4 7c 7c bd 41 d1 18 3d
       -0.09326235 -0.31562108 -0.061642423 0.037308935
000230 4f 11 04 be 2a 8a 2b 3e 81 0f 77 bb 49 0a 79 be
       -0.12897228 0.16751924 -0.003769845 -0.2432033
000240 a4 63 5a 3e a6 99 d8 be 8d d2 8b be e5 87 d9 3a
       0.21327072 -0.42304724 -0.27309075 0.0016596286
000250 3e e5 ba bd 88 4c ac 3e f6 e2 a8 bd 11 fd 08 3d
       -0.09125756 0.3365214 -0.08246414 0.033444468
000260 22 31 81 3e 2e a3 d2 be 72 40 bc 3e c9 b8 59 be
       0.25232798 -0.4114012 0.36767918 -0.21261896
000270 1c 2d 16 be 17 70 81 3d dd 76 2a be 2a 74 b6 3d
       -0.14665645 0.063202076 -0.16646905 0.08908875
000280 de 1d 24 be 48 a7 7b bd 77 0b 74 3e d9 c4 98 3e
       -0.16027018 -0.06143883 0.23832498 0.29837683
000290 5a 27 c9 be 19 25 5c 3e 48 99 16 bd e8 6b 9a 3e
       -0.39287835 0.21498527 -0.036767274 0.3016045
0002a0 f0 3a 18 be a4 36 a4 3d 78 ec 9c be a4 97 31 3e
       -0.14866233 0.08018234 -0.3064916 0.17343003
0002b0 d2 10 e3 bd 07 e9 5b 3e 4f ea d9 bc 7e 1b d8 3e
       -0.110871926 0.21475612 -0.026600985 0.42208475
0002c0 bf 44 3d 3e 4e 66 76 be 53 c7 e2 bc 69 6c e1 3d
       0.18483256 -0.24062464 -0.027682936 0.11007006
0002d0 ed ea 8a bd 93 f8 4d 3e bc bd 0c 3d d1 3e 04 be
       -0.0678309 0.20114355 0.034360632 -0.12914588
0002e0 73 36 47 be ff 7f cc bd 1f 1c 91 be 0e 9c e9 3d
       -0.19454364 -0.09985351 -0.28341767 0.11406718
0002f0 1c d3 e5 bd e4 f2 ff bd 9a 79 22 3e 83 5a df 3e
       -0.112219065 -0.124974996 0.158667 0.43623742
000300 d0 f1 40 3e 34 d0 14 3c 2a 94 ff 3d 9c 49 42 bd
       0.18842244 0.009082843 0.12479432 -0.04743348
000310 05 a0 ef 3d 18 4f ac be d6 54 0b 3e eb be b4 3e
       0.11700443 -0.33654094 0.13606581 0.3530191
000320 ce f4 81 bd 57 91 c7 3e 95 18 f8 3c 91 48 11 be
       -0.06345521 0.38978073 0.03028516 -0.14187838
000330 af b3 49 3e 7d fe ba 3c 52 3b 5e 3e 9c 96 ea bd
       0.1969745 0.022826428 0.21702316 -0.11454508
000340 5d b9 26 be 2f e1 b9 be 6a ea e9 3e 9b 16 85 3e
       -0.16281648 -0.36304614 0.45686656 0.2599381
000350 9b 55 09 be 97 dd ff 3d 9b 2b 44 3e 31 ae 7b bd
       -0.13411562 0.12493437 0.19157259 -0.06144542
000360 88 41 15 be cf 6d 81 be ee a6 38 3e 49 12 8c 3d
       -0.1457578 -0.2527909 0.18032429 0.06839425
000370 f2 7a 03 3d 70 0f 17 3e 2b 84 aa 3e 83 39 db 3e
       0.03209967 0.14751983 0.3330396 0.42817315
000380 63 31 8f 3d c6 b8 3e 3e 0f 38 90 be 7f 95 a9 bd
       0.06991842 0.18625173 -0.2816777 -0.08280467
000390 a2 3c 6b 3e 6c 4f 6d be 98 bd 0a 3e 60 ac bf 3d
       0.22972348 -0.23174828 0.13548887 0.0935905
0003a0 c4 97 33 3e 86 ec a2 3e 55 f5 0e 3f 72 7f 83 3d
       0.17538363 0.31821078 0.55843097 0.06420793
0003b0 b0 81 bb 3e 6c 83 09 be 21 42 3c 3e 19 2a 52 be
       0.3662238 -0.1342904 0.18384601 -0.20523871
0003c0 bd cb af 3e 2d d3 f9 bd 7d 86 84 be 0e 4e 98 bd
       0.34335127 -0.12198482 -0.25883856 -0.07436763
0003d0 16 05 08 be 38 0b 1c 3d 2c a0 7c bd 29 5b c5 bc
       -0.1328319 0.038096637 -0.06167619 -0.02409132
0003e0 f4 0d 2f be 4b 2d 15 3e bf ef 8b be 81 65 85 bd
       -0.17095166 0.14568059 -0.2733135 -0.06513501
0003f0 ab 62 15 be 4f 4e b5 be 4f 70 67 be dd 9c 83 3d
       -0.1458842 -0.35411307 -0.22601436 0.06426404

mlp_layers.0.bias f4 [16]
000000 8a 4f 09 3e 8f eb 2c 3e 48 e3 8a 3e 0b 06 8c 3e
       0.13409248 0.16886733 0.27126527 0.2734836
000010 54 b6 96 3e 7e cc cd 3d 05 af 53 3e 4a 4f d8 3e
       0.2943598 0.100487694 0.20672233 0.42247993
000020 2f df d7 3c ad ce 1d 3e 1d 14 81 3e 72 db 84 3e
       0.02635154 0.15410872 0.25210658 0.25948673
000030 38 ae f0 bb c5 2a 86 3d 17 f8 56 3e 6f c7 9d 3d
       -0.0073449872 0.065511264 0.20993076 0.077040546

mlp_layers.2.weight f4 [8, 16]
000000 2c 05 2c 3e e0 14 75 3e 17 db da 3b b0 16 14 3e
       0.16798848 0.23933744 0.0066789496 0.1446178
000010 7f cb bd 3e 8c 0b 62 3e ed 7a 04 3d 78 15 0d 3e
       0.37069318 0.22074717 0.032343794 0.13777721
000020 7d 12 0f 3f ac 89 0f 3e 0f 5a 94 3e 03 55 e8 3d
       0.55887586 0.14017361 0.2897496 0.1134434
000030 28 b5 90 3e ad 88 96 3e 9d 92 fc 3d b2 ad 36 3e
       0.2826321 0.2940115 0.12332652 0.17839697
000040 7c 8f ca 3e f0 ad b9 3e aa 47 0a 3e 4f 77 96 3c
       0.39562595 0.36265516 0.135039 0.018367438
000050 94 bd 75 bd 9f 44 b5 3e b1 c2 c9 3e f0 42 8d 3e
       -0.05999525 0.35403916 0.3940635 0.27590132
000060 e3 96 37 3d 27 3a b5 3e 55 a6 9c 3e 5d 4e f0 3a
       0.04482163 0.3539593 0.3059565 0.0018333901
000070 b2 a3 5c 3c 85 7a 65 3e 32 c0 69 bd 88 93 96 3e
       0.013466762 0.22410019 -0.057068057 0.29409432
000080 ad fd 20 3c 7c 3e ab 3e 13 13 a5 3e 54 eb 7d 3e
       0.009826106 0.3344611 0.32241115 0.24796802
000090 fd d3 18 3e 76 b6 ac 3e b5 7d 2c 3e 1c de 42 3e
       0.14924617 0.33732957 0.16844828 0.1903004
0000a0 20 94 fd 3d 44 f8 bc 3d be 7f 11 3e ed 3f 9d 3e
       0.12381768 0.092270404 0.14208886 0.30712834
0000b0 79 7a a3 3d b9 e6 c0 3e 02 3c 6d 3e b0 4f ad 3e
       0.07982344 0.37676027 0.23167422 0.3384986
0000c0 9f 8e 87 3e db c8 bc bd f0 54 97 bd eb 5f 54 be
       0.26476 -0.09217998 -0.073892474 -0.20739715
0000d0 b0 4f ab 3e 47 4d 0f 3e 98 f8 6e be 67 98 8e be
       0.33459234 0.13994323 -0.23337018 -0.2785065
0000e0 fc 22 1b 3e 73 fa 8f be 64 a9 31 3e 62 d0 c9 bd
       0.15150064 -0.28120765 0.17349774 -0.09854199
0000f0 3e 1c 65 3e d1 e7 0f be 8e b5 67 3d e4 87 8c 3e
       0.22374055 -0.14053275 0.05656963 0.27447426
000100 eb e7 95 3e 22 4a 3a 3d 50 9a df 3d c9 57 74 3e
       0.29278502 0.045480855 0.10918105 0.23861612
000110 8e af 1c ba 69 fd a2 3e e3 0e b8 3d 6c 17 e4 3e
       -0.00059770874 0.31833962 0.089872144 0.4454912
000120 f7 a1 db 3e 3f 41 f7 bd 6e aa 8e bc cf 6d 91 3e
       0.42897007 -0.120729916 -0.017415252 0.2840409
000130 4a ee 8f 3e 88 b1 a7 3e f0 63 c2 3e 71 d6 d4 bc
       0.28111488 0.32752633 0.3796687 -0.02598116
000140 dc 36 1d 3e 46 05 42 bc 5f 1d ae 3d a5 cc ee 3e
       0.15352958 -0.011842078 0.08501696 0.46640506
000150 57 f8 cb 3e cf af a9 3e 37 a2 39 3e ed 4c a7 3d
       0.39837906 0.33141944 0.18128286 0.08168969
000160 e8 c8 45 3e ad 72 bc 3e 42 55 9c 39 4d c5 b2 3e
       0.19314921 0.3680624 0.0002981816 0.34916154
000170 c9 59 2f 3e 72 87 9b 3d ba d0 94 3e e4 04 27 3e
       0.17124094 0.075941935 0.29065496 0.1631046
000180 4d 11 c8 3b ef 92 6c 3e 93 e5 25 3e de b4 20 3c
       0.006105578 0.23102926 0.16200857 0.009808747
000190 de 10 b7 be e8 0e e0 be e9 9c 17 be 9e ac bd bd
       -0.35755056 -0.43761373 -0.1480595 -0.0926144
0001a0 1b 7f 97 be 36 31 13 3e c0 29 f9 3d 40 9f 27 be
       -0.2958916 0.14374241 0.12166166 -0.16369343
0001b0 2d cd 2b 3e b7 38 16 be d1 13 79 3e 3c 3d 8f 3e
       0.16777487 -0.14670072 0.24323966 0.27976406
0001c0 24 b0 3f 3d 43 e3 e0 bd 2d 4e 46 be c3 cb 68 be
       0.04679884 -0.10980847 -0.19365759 -0.22733979
0001d0 6e 59 95 bd 03 6d cd bc 5d 27 95 be f9 b7 5e be
       -0.07292448 -0.025076395 -0.29131594 -0.21749867
0001e0 02 67 a3 3d e9 3c d0 3d 8a dd 89 be e2 a0 3e be
       0.079786316 0.10167868 -0.26926833 -0.1861606
0001f0 ca 0c 99 be 5f fd c0 3d d0 79 40 bc 51 7a 85 3c
       -0.2989257 0.09423327 -0.011747792 0.016293677

mlp_layers.2.bias f4 [8]
000000 a7 8d 25 3d f5 f3 d9 3e e4 1f a1 3e 23 d1 6e bb
       0.040418293 0.42568937 0.31469643 -0.0036440573
000010 15 63 db 3e 41 b9 02 3e b9 95 88 be 54 7d 39 3e
       0.4284903 0.12765981 -0.2667673 0.18114215

final_layer.weight f4 [1, 24]
000000 5e 63 62 3b ca 82 79 bc 56 44 f3 3c 1b 1e 4a bb
       0.003454409 -0.015228936 0.029695671 -0.0030840698
000010 ce 5b 91 3b a4 6e ac bc 92 78 34 bc 97 cc 4f 3b
       0.004435993 -0.021048851 -0.011015074 0.0031707638
000020 0b f3 a6 bc 62 db 0b bd a3 5e 6e bb c7 96 93 bc
       -0.020379564 -0.034144767 -0.0036372326 -0.018016232
000030 ab b2 8a 3b 53 3d 5c 3c eb d6 e3 3b 2f 3b a9 bb
       0.0042327247 0.013442355 0.0069531105 -0.005164526
000040 33 da c1 3e 1b 22 8d 3e da e1 91 3e c4 c9 2e 3e
       0.37861785 0.27565083 0.28492624 0.17069155
000050 77 85 80 3e 31 37 9d 3e cf 95 5a 3e bf 64 ed bd
       0.25101826 0.3070617 0.2134621 -0.115914814
